…
curacy means that we only care about how close the answer was to the actual answer \nmodel.compile(optimizer='adam',\n              loss=tf.keras.losses.SparseCategoricalCrossentropy(from_logits=True),\n              metrics=['accuracy'])\nmodel.summary()","kernel":"cv_env","metadata":{"id":"83YcVBTMNkE0"},"output":{"0":{"name":"stdout","text":"Model: \"sequential\"\n_________________________________________________________________\nLayer (type)                 Output Shape              Param #   \n=================================================================\nconv2d (Conv2D)              (None, 26, 26, 28)        280       \n_________________________________________________________________\nmax_pooling2d (MaxPooling2D) (None, 13, 13, 28)        0         \n_________________________________________________________________\nconv2d_1 (Conv2D)            (None, 11, 11, 56)        14168     \n_________________________________________________________________\nmax_pooling2d_1 (MaxPooling2 (None, 5, 5, 56)          0         \n_________________________________________________________________\nconv2d_2 (Conv2D)            (None, 3, 3, 56)          28280     \n_________________________________________________________________\nflatten (Flatten)            (None, 504)               0         \n_________________________________________________________________\ndense (Dense)                (None, 64)                32320     \n_________________________________________________________________\ndense_1 (Dense)              (None, 10)                650       \n=================================================================\nTotal params: 75,698\nTrainable params: 75,698\nNon-trainable params: 0\n_________________________________________________________________\n"},"1":{"name":"stderr","text":"2022-07-05 20:35:25.415870: I tensorflow/compiler/jit/xla_cpu_device.cc:41] Not creating XLA devices, tf_xla_enable_xla_devices not set\n2022-07-05 20:3
…
